app/src/main/assets/keras_model.tflite (tflite, 408804 bytes, 4 tensors)

dense_1/bias f4 [10]
000000 54 39 f1 bd f1 f5 dc bd 2b 17 c0 bc c8 9e 27 bd
       -0.117785126 -0.10789097 -0.023448547 -0.04092291
000010 7d f2 7f 3d 7a 36 e4 3d 19 16 87 bd 4d d7 83 bd
       0.062487114 0.11143203 -0.06596012 -0.0643755
000020 7a c0 fa 3d fb 22 b0 3c
       0.12243743 0.021501055

dense/bias f4 [128]
000000 7e 02 bc bd 74 dd ca bd fc 9c 52 3d 8a 7b be bd
       -0.09180163 -0.0990552 0.051419243 -0.09300907
000010 55 4b 1f 3d 3b 06 8f bd f6 74 12 3d a6 60 50 3a
       0.0388902 -0.0698361 0.035756074 0.0007948972
000020 f7 d2 2f bd 10 1e 49 3e 50 e4 5c bd 7a 43 aa 3d
       -0.0429258 0.19640374 -0.053928673 0.083136514
000030 77 ef c8 3d d1 42 d5 3d b7 65 20 3e 24 94 df 3d
       0.09811299 0.10413135 0.15663801 0.109169275
000040 75 93 1e bd 68 a6 16 3d ae 7a 3a 3d 4c 65 b1 bd
       -0.038714845 0.03677979 0.045527153 -0.08661899
000050 ce da de bd d8 bc c8 3d b0 90 75 3d eb 01 d0 bd
       -0.108815774 0.09801644 0.059952438 -0.10156616
000060 9b 36 a3 bd f6 48 19 3e b0 f4 41 3d f4 d2 27 bc
       -0.079693995 0.14969239 0.047352493 -0.010243166
000070 72 7d 82 3b c9 88 d5 bd 6d b6 54 3e 56 70 1f 3d
       0.0039822394 -0.1042648 0.20772715 0.03892549
000080 db d5 6b 3d 87 7a 63 bd 62 c8 ec bc 70 9e 15 bc
       0.057576995 -0.055536773 -0.028904144 -0.009132013
000090 59 95 bc bd fc 9f 7d bb bf 28 14 be c1 e5 f7 3d
       -0.09208173 -0.0038700094 -0.14468668 0.12104369
0000a0 57 57 40 bd 41 c0 01 3d 76 08 61 3d bb 7c c9 3d
       -0.046958294 0.03167749 0.05493971 0.098382436
0000b0 13 68 83 ba 35 be 15 3e 45 42 c5 3d ea ec 4c bd
       -0.0010025523 0.1462334 0.096317805 -0.050030626
0000c0 49 6b bb bc df a9 61 3d a7 fa ea 3d a7 9d a6 3d
       -0.022878306 0.055093642 0.114735894 0.081355385
0000d0 00 2e 4d 3e 8a 1e a3 3c 3b 55 9d bd 10 87 b5 3d
       0.20037079 0.019912023 -0.07682272 0.08863652
0000e0 cc 86 69 3d f2 49 4f bd ec 3e af bb cd e8 92 3d
       0.057013318 -0.05060763 -0.005348077 0.071733095
0000f0 44 93 db bd 3c 61 d5 bb 5e b8 ad 3d e9 0f 06 3e
       -0.10721448 -0.0065118354 0.08482431 0.13092007
000100 53 cb 5b 3d 8c 9f 32 3c 0c f4 bb 3d 56 32 9a 3c
       0.053660702 0.010902297 0.091774076 0.01882283
000110 c0 c6 90 bd ba 30 b7 3d 26 60 92 3d bc 2a d3 3c
       -0.070691586 0.08944841 0.07147245 0.025777213
000120 cb cb 43 3e 70 84 f0 bb aa 65 05 bd 0a 01 9f 3c
       0.1912071 -0.0073400065 -0.032567658 0.019409675
000130 7c e1 8a 3d 3a 5f 45 3d fb cf c3 3d 1f b5 bd bd
       0.06781289 0.04818652 0.095611535 -0.09263062
000140 9c 04 2b bb e0 8c 90 bb 6f e4 90 bd 23 6a 70 3d
       -0.0026095277 -0.004411325 -0.0707482 0.05869497
000150 a0 16 13 3c cc 07 93 3d d3 a1 11 bd 6a f9 18 3d
       0.008977562 0.071792215 -0.03555472 0.037347235
000160 55 87 9e 3d 9f a9 eb 3d e9 b9 e6 bc ed 27 01 bd
       0.07740656 0.11506962 -0.02816482 -0.031532217
000170 0c 48 3a 3c 6e 6a 09 3c dc 27 a9 3d 1c e8 8a bd
       0.011369716 0.008387191 0.08259556 -0.067825526
000180 13 8a 84 3d 5c 13 57 bd 75 a7 02 bc 10 cc 0e 38
       0.06471648 -0.052508697 -0.007974495 3.4045486e-05
000190 fc 93 c7 3d 12 87 57 bc 11 01 29 bd b7 d9 2e 3d
       0.09745023 -0.013154762 -0.041260783 0.042688098
0001a0 14 7c a7 3d 9b 89 2a 3d 13 15 24 3d 40 c4 a0 bc
       0.08177963 0.041635137 0.04005916 -0.01962483
0001b0 30 5b 77 bd 77 bb 27 bd b5 8e 20 3e 80 a8 20 bc
       -0.060389698 -0.040950265 0.15679438 -0.0098057985
0001c0 48 cb a4 bd d0 9c 6a 3d 84 a0 93 bc 80 46 a4 3d
       -0.08046585 0.057278454 -0.018020876 0.08021259
0001d0 29 66 69 3d ec 7f 19 3c 8c 62 1c bc d4 29 11 3c
       0.056982193 0.009368878 -0.00954498 0.00886007
0001e0 65 90 34 3e e2 f8 81 bd 05 4b 86 bd 33 b2 43 3e
       0.17633207 -0.06346299 -0.065572776 0.19110946
0001f0 47 43 5e ba 28 31 99 3d ee b5 2f bc d8 98 25 bb
       -0.0008478653 0.07480079 -0.010724528 -0.0025268104

sequential/dense/MatMul f4 [128, 784]
000000 30 ef cb bc d5 c6 98 3d 00 97 e4 ba 48 98 71 3c
       -0.024894327 0.07459799 -0.0017440021 0.014745779
000010 0c bd 97 3c 77 47 2d bd ca 24 38 3d c6 58 62 3d
       0.018522762 -0.042304482 0.04495696 0.055260442
000020 00 48 79 bd 15 4c 96 bd cf 50 65 bd a7 04 80 3d
       -0.06085968 -0.0733873 -0.05598527 0.06250887
000030 77 54 d1 3d 44 08 86 3d a2 db f0 3d d7 65 c2 3d
       0.102211885 0.06544545 0.11760642 0.09492081
000040 dc 06 22 3d 1f 4e a3 bd e8 2f 49 bc 63 36 0c bd
       0.039557323 -0.07973885 -0.012279488 -0.034231555
000050 61 59 4b bd 01 fa 28 bd a1 94 2e bd 44 02 80 3c
       -0.049645785 -0.041254047 -0.042622212 0.01562608
000060 9c 15 07 3d a8 fa e5 bc 29 e6 98 3d 5e c0 40 3d
       0.032979593 -0.028073624 0.074657746 0.047058456
000070 7c 6c bd bc 10 b9 bd bb 3c dd 85 bc 74 ed c2 3c
       -0.023123018 -0.0057898834 -0.016340844 0.023794867
000080 6c 27 fc bc 42 ef 7e bb 87 f8 cd 3d 2a f3 01 3e
       -0.030780517 -0.0038899933 0.100571685 0.12690416
000090 50 b7 1c 3d 6d a7 ea 3c 01 07 85 bc 42 ca b4 3d
       0.038260758 0.028644288 -0.016238691 0.0882764
0000a0 65 23 49 3d 24 d3 33 3e 52 de 11 be dd 2a bd 3a
       0.04910602 0.17561013 -0.14244965 0.001443233
0000b0 ec ea d2 3d 01 df 2e 3e 7a fc 58 3c eb 2f 3b 3e
       0.10298714 0.17077257 0.013243789 0.18279998
0000c0 69 a1 9d 3d d9 53 9a 3d 5d 9a 8a 3d f1 a7 a8 3d
       0.07696802 0.07535524 0.06767724 0.08235157
0000d0 1b 8b 91 bd 9e f2 bc bc 60 3f 5b bd c8 e9 24 3d
       -0.071066104 -0.023064908 -0.053527236 0.040262014
0000e0 b0 32 a1 3b ec b2 67 bd 02 1b 56 3d d5 f5 61 3d
       0.0049193725 -0.056567118 0.05227185 0.055166084
0000f0 b3 c7 e4 3d c4 78 5e 3c 20 61 b4 3d 7b 96 1d 3e
       0.11170902 0.013578597 0.088075876 0.15389435
000100 23 fc 6d 3e 09 fc 4d 3e 30 6f a5 3e a8 10 69 3e
       0.23240714 0.20115675 0.32311392 0.2276026
000110 cd 6c f1 3d 5b 03 e9 bd 33 ef 7c 3d 17 93 89 bd
       0.1178833 -0.11377593 0.061751556 -0.06717508
000120 40 ac 86 3c 90 f4 f6 bc a4 4d 19 be 3c af cc 3c
       0.016439557 -0.030145913 -0.14971024 0.024985902
000130 a1 31 83 3d 46 3f 36 3e 7f f5 dc 3d b3 a3 64 3d
       0.0640595 0.17797574 0.10789012 0.05582018
000140 20 10 d6 3c a8 3b d7 3b 2e 4c b9 bc b8 bf 0e 3d
       0.026130736 0.006568391 -0.022619333 0.034850806
000150 20 90 cd bb f6 cd 16 3d 46 43 d0 bc f2 a2 eb 3d
       -0.0062732846 0.036817513 -0.025422703 0.11505689
000160 78 ab 2a 3e ee 2d 3c 3e 04 c4 63 3e b2 ce a5 3d
       0.16666973 0.18376896 0.22242743 0.080960646
000170 78 ea 3e 3e 33 43 95 3e 4c c8 5a 3e 4a 41 8e 3e
       0.1864413 0.2915283 0.2136547 0.27784187
000180 2e e0 f5 3d 4e 7d db 3b b4 96 d0 3d 04 39 af 3b
       0.120056495 0.006698287 0.10184994 0.005347373
000190 37 ae b1 3d 04 cd 50 3d 96 d0 2b 3d 60 e9 88 3c
       0.08675807 0.050976768 0.04194697 0.016712844
0001a0 25 b7 21 3e 43 33 33 bc d0 78 2a be e1 2c 23 be
       0.1579252 -0.010937515 -0.16647649 -0.15935089
0001b0 76 22 47 3e 99 8b 4f 3e a6 18 67 3e 7a ca 44 3d
       0.1944674 0.20268096 0.22567996 0.04804466
0001c0 b8 48 d3 3c df ed f5 3c 95 52 06 bd 2f 5a 8b bc
       0.025791511 0.030020652 -0.0327936 -0.017010776
0001d0 c3 8c 2e 3c 27 54 aa 3e 6b 9e 4b 3e 1e 2d 0d bd
       0.010653677 0.33267328 0.1988465 -0.034466855
0001e0 c3 6b 11 3e 36 41 5d 3e 56 c6 12 3e 72 35 80 3e
       0.14201264 0.21606907 0.14333472 0.25040776
0001f0 67 73 99 3c e1 b4 de 3c a3 8b 88 bd a7 ec 2c 3c
       0.018731786 0.02718586 -0.066672586 0.010554469
000200 f4 65 90 3b e5 b2 0a 3d f8 0c ec 3d b9 68 8d bc
       0.004406685 0.033862013 0.11525911 -0.01726185
000210 6b e9 17 bd 1c 51 63 be d4 5d 81 be 00 8a 0e be
       -0.03708784 -0.2219891 -0.25266898 -0.1391983
000220 1e 1e 89 bd eb f3 02 3e 4d 9c 46 3e ab 11 ff 3d
       -0.066951975 0.1278836 0.19395562 0.12454542
000230 c6 b8 85 bd 66 0f 2d bd b3 ca ed 3a 69 2b 03 3e
       -0.06529383 -0.042251013 0.0018142074 0.12809528
000240 d0 1c 88 3e b1 9b b5 bc 58 b8 57 bd 9d ff f5 bd
       0.26584482 -0.022168966 -0.05266604 -0.12011645
000250 ab d2 95 bd b6 8b 84 bd 2a d9 a9 3d 0b 6a cc 3d
       -0.07315572 -0.0647196 0.08293374 0.099811636
000260 de 02 b4 bc 61 75 9f bd 47 b6 e5 bd cf 79 16 bd
       -0.021974023 -0.0778606 -0.11216407 -0.03673726
000270 b9 0b 1f 3d 48 23 2d 3d 9b b0 f5 b9 26 0b 99 3d
       0.03882954 0.042269975 -0.00046861623 0.074728295
000280 9c a7 bb 3d 9a de 1b bd 59 59 af bd 2a 6e fe 3c
       0.09162828 -0.038054086 -0.085619636 0.03105839
000290 3d d8 0c bd 17 cd 45 bd ef 96 c3 3d c3 fe e0 3d
       -0.03438591 -0.048291292 0.09550273 0.10986092
0002a0 47 bf 90 3d dc 8d fe 3c 68 a1 36 bd b3 f1 62 3d
       0.07067733 0.031073503 -0.044587523 0.055406284
0002b0 fa 40 fd 3d 58 8e 73 3d 83 7a 1c bd 03 2c 28 be
       0.12365909 0.05946192 -0.038202774 -0.16423039
0002c0 07 8b 27 be 12 48 0d be ae 8c ed bd 68 f2 03 be
       -0.16361628 -0.13797024 -0.11599098 -0.1288544
0002d0 bb 23 12 be 9c 92 20 bd 34 ef 5f bd 9b f7 20 bc
       -0.14271443 -0.039202318 -0.05467148 -0.009824659
0002e0 f4 dc a2 3d 51 0b b9 bc 14 72 1e bd f6 9a e0 bb
       0.079523 -0.022588404 -0.038683012 -0.0068544103
0002f0 41 a2 b1 bd 5f 5c 5b bb 65 67 27 bc 58 78 63 bc
       -0.086735256 -0.0033471806 -0.010217522 -0.013883673
000300 42 9a db 3d b7 7d 55 3d d4 cf 5d 3e aa 2a 53 3c
       0.10722782 0.052121844 0.21661311 0.01288859
000310 fe 15 4a bd de 29 cf 3d 8b 18 12 3c cb 42 d3 3d
       -0.04933738 0.101154074 0.008916984 0.10315474
000320 39 28 1a 3e fa 1a dc 3b 22 4c 9a bb df a4 d6 bd
       0.15054406 0.006717083 -0.004708783 -0.104806654
000330 89 fd fb ba 7c fc 18 be 06 f5 26 bd 37 5a 1b bd
       -0.001922534 -0.14940065 -0.040761016 -0.037927832
000340 dd a6 01 be 83 76 9d bd 85 ba 68 bd 26 02 32 3c
       -0.1266131 -0.0768862 -0.056818504 0.01086477
000350 be 85 96 3d a3 83 ad 3d a8 1f 24 bd 7b 20 ac 3c
       0.07349728 0.08472373 -0.040069252 0.021011582
000360 e3 a8 f0 bc 47 03 af 3c c2 ae 89 3b eb 5b 2b bd
       -0.029377406 0.021363867 0.004201741 -0.041835707
000370 c2 28 72 bc 42 ff b1 bc a6 97 07 3e 67 0e d5 3c
       -0.014780225 -0.021728162 0.13241443 0.026007844
000380 26 8f e4 3d 5f d5 9d bd de 3f 19 3e fb 80 7e 3d
       0.11160116 -0.07706713 0.1496577 0.062134724
000390 24 2b 55 3d 29 84 59 bc 30 bd 1c bb 4e 1d 0a be
       0.052043095 -0.013276138 -0.0023916475 -0.13487741
0003a0 5b 3e 64 bd 11 a0 43 bd 73 e4 91 3c 25 e1 b4 bd
       -0.05572353 -0.047760073 0.017809128 -0.088320054
0003b0 46 5b 81 bd 00 04 41 bd 6c a8 a4 3d 64 32 19 bd
       -0.06316237 -0.047122955 0.080399364 -0.037401572
0003c0 15 ed 40 3c 25 b3 e4 bb 8f 70 6a bd 23 f9 50 bc
       0.011775275 -0.0069793635 -0.05723625 -0.012754711
0003d0 f4 00 b7 3d 94 bb 2f 3d a4 fb e6 bc cd 5d de bd
       0.08935729 0.042903498 -0.028196163 -0.10857735
0003e0 c6 ff 09 be 60 d5 d4 3d ca 20 3c 3e c3 08 63 bc
       -0.13476476 0.103922606 0.18371883 -0.013857069
0003f0 0e 03 01 be a0 4f cd bd 1d ff 6e 3b 8f 47 19 bd
       -0.12598822 -0.10024953 0.0036467977 -0.03742176

sequential/dense_1/MatMul f4 [10, 128]
000000 c0 61 48 3e 89 65 9b bd df a0 2f be d2 f5 1d 3e
       0.19568539 -0.07587726 -0.17151211 0.15425804
000010 2f 27 2a bc 7c a0 93 3e bd 0e 14 3e 14 0a 0f be
       -0.010385319 0.28833377 0.14458747 -0.13968688
000020 76 8c 02 be c0 40 00 be 21 02 bb bd 95 c6 96 be
       -0.12748894 -0.125247 -0.091312654 -0.2944838
000030 35 57 d9 bc 9d 55 c4 bd 95 4e a5 be 27 9d f4 3d
       -0.026530841 -0.09586642 -0.32286516 0.11944037
000040 42 25 f3 be c5 d3 74 3e 1d b2 18 bf d7 ea 68 be
       -0.47489363 0.23908909 -0.5964678 -0.22745834
000050 f0 bd 74 3e 5a 98 32 be 65 c6 c7 3d 4e 27 c0 bd
       0.2390058 -0.1744093 0.09754638 -0.09382497
000060 95 9a 16 bf 72 6a 86 be 8c f7 a0 be fa 0e c4 be
       -0.58829623 -0.26253086 -0.31438863 -0.38292676
000070 ac a8 2f be 87 fc 02 be be 35 27 be 63 fb 85 be
       -0.17154187 -0.12791644 -0.16329095 -0.26168355
000080 91 83 cf be 79 3f b4 be ca d2 20 bf 33 e0 9f 3d
       -0.40530065 -0.35204676 -0.6282164 0.078064345
000090 8c 66 55 3e 53 bd eb bd 3c 75 d8 3e 00 09 03 3e
       0.208399 -0.1151072 0.42276943 0.12796402
0000a0 01 fb 7d bd 95 cf 87 3e cd 32 93 be 19 6d ad 3c
       -0.062006954 0.2652556 -0.28749695 0.021170186
0000b0 aa 82 d6 be 9f 93 ce bd 88 50 1b bf ab 4b a0 3e
       -0.41896564 -0.1008675 -0.60669756 0.3130773
0000c0 7b 86 0e be 15 5d 23 3e d3 cf 9d 3d bf bf c5 3d
       -0.13918488 0.15953477 0.07705655 0.09655713
0000d0 fc cb e8 3d 17 8e 12 ba 30 da cb 3e 6b f9 30 3e
       0.11367032 -0.0005590631 0.398149 0.17282645
0000e0 7e 1f d4 be 77 8a 7a 3d 20 2f 16 3d 3b 4d 9e 3e
       -0.41430277 0.061167207 0.036666036 0.30918297
0000f0 85 6d 06 bf 62 ff 2f 3e 5d b1 03 3e e0 f6 26 3d
       -0.52510864 0.17187265 0.12860627 0.040762782
000100 1c bd 13 be 55 c4 cb 3d 6c df 8d bd e9 18 cb be
       -0.14427608 0.09949557 -0.0692738 -0.39667442
000110 e5 75 b0 3d ce 86 24 be 7b 9c 22 3e 43 bc 3a bd
       0.086162366 -0.16067049 0.15880005 -0.045589697
000120 72 cb 09 bf d6 bb 19 3c 03 55 95 be ac 47 99 3d
       -0.5382606 0.0093831625 -0.2916642 0.074843735
000130 f6 d5 3d 3e 68 c0 40 be d3 81 66 3c 3d 99 6b be
       0.18538651 -0.18823397 0.014069038 -0.23007675
000140 fa 3a 85 3b 26 51 08 bf 5a a2 30 3e 6d 18 58 be
       0.0040658684 -0.5324882 0.17249432 -0.21103068
000150 bc 80 f3 be 2c 76 0a 3c 41 87 04 3e 18 2d 88 be
       -0.47559154 0.008451026 0.1294222 -0.26596904
000160 0f c4 9b be b0 6b cc be ac 0f 87 be a2 ee a7 be
       -0.30423018 -0.3992591 -0.26379144 -0.3279925
000170 31 25 ae be 24 02 46 be 3d a3 2a 3e c2 e1 56 3e
       -0.3401275 -0.19336754 0.16663833 0.20984557
000180 87 9e b4 3e 8e 8f a8 be 2c a9 39 3e 17 81 72 be
       0.35277197 -0.32922024 0.1813094 -0.23682056
000190 e3 d7 3e be b5 b6 f5 be 68 e2 9d 3d 97 d4 fc bc
       -0.18637042 -0.47990957 0.07709199 -0.03086309
0001a0 91 ff 82 bd 6d c8 ba 3e e5 06 2c 3e 5d f5 8f 3e
       -0.06396402 0.36481038 0.16799505 0.28116885
0001b0 a9 58 18 3e dd e5 50 be 7f a6 5d 3e 1b 46 2e be
       0.14877571 -0.20400186 0.21645544 -0.1701893
0001c0 1b 48 43 3e 79 90 04 bf 0a be 5e 3d 3e cf a6 be
       0.19070475 -0.5178295 0.054380454 -0.32579988
0001d0 69 09 07 bf 25 a3 00 bc 32 70 00 3d 6c 41 6e 3e
       -0.52748734 -0.007851397 0.031356998 0.23267144
0001e0 5f 5e a4 be 93 1d 65 3e 90 47 06 3e ea 62 85 be
       -0.3210325 0.22374563 0.13113236 -0.26052028
0001f0 43 ac 32 3e 73 65 51 3e 30 0e a3 bd 57 82 83 bd
       0.17448525 0.20448856 -0.079616904 -0.06421345
000200 68 7e 45 be 2b df 1c 3f 61 c7 92 be 60 80 32 be
       -0.19286501 0.6127803 -0.2866774 -0.17431784
000210 ca 73 28 bd e6 2a 92 3e 4c 95 77 be 7a f9 14 3e
       -0.04112605 0.28548354 -0.24178046 0.14548293
000220 73 9c 1e bb 72 f5 9f 3e 56 20 09 3e 99 7f 40 be
       -0.0024202138 0.31241947 0.13391241 -0.18798675
000230 59 56 16 3f af 01 f5 bd 2f 1c aa be 50 16 af be
       0.58725506 -0.11963212 -0.33224627 -0.3419671
000240 f9 69 a6 3e d5 34 38 be a8 7a 61 3e 88 df fc 3d
       0.32502726 -0.17988904 0.22019446 0.12347323
000250 80 0a e3 be d5 5b b1 be ec fa 3b bf 4e 8f 97 3d
       -0.44343948 -0.34640375 -0.7342975 0.0740038
000260 45 b9 ed 3d 05 19 4f 3e 93 46 a6 3e ec 1d 72 3d
       0.11607603 0.20224388 0.3247572 0.059110567
000270 87 bd 4b 3d ee ac ec 3d cd f9 38 bc c7 e2 7e be
       0.049741294 0.11556421 -0.011290026 -0.24891196
000280 66 05 d5 be b2 6f 85 be 10 bb 24 3e 96 03 b0 be
       -0.4160568 -0.2606178 0.16086984 -0.34377736
000290 82 f8 41 be f9 f1 99 3c a8 32 bf be 51 32 77 3e
       -0.18942454 0.01879214 -0.37343335 0.24140288
0002a0 e7 c9 00 be f4 38 76 bd 98 9f 54 be 2f e0 f8 bd
       -0.1257702 -0.06011291 -0.20764005 -0.121521346
0002b0 6d 21 4c be e8 98 82 be 88 e8 42 bf 17 f5 2b be
       -0.19934626 -0.25507283 -0.76136065 -0.16792713
0002c0 f2 ee 6e be 03 d6 42 bb 7d 93 30 3e 5f 39 03 3f
       -0.23333338 -0.0029729612 0.17243762 0.51259416
0002d0 45 ed a2 3e c2 99 9b be 18 7a 06 3e 51 96 df be
       0.31821647 -0.30390745 0.13132513 -0.4366937
0002e0 74 8d da 3c 68 0c 50 3d 31 29 46 be 64 49 fc bd
       0.026678778 0.05079308 -0.19351651 -0.12318686
0002f0 0e b0 c3 bd 7b 09 58 be af 24 36 3e 31 ae d5 3d
       -0.09555064 -0.21097367 0.17787431 0.10433615
000300 17 8b e1 3b 90 07 57 3e f6 9f e2 3d 23 3d 51 bc
       0.006883036 0.20998979 0.110656664 -0.012770924
000310 11 4c d8 3e 36 90 b5 bd eb cc 60 be 0d c5 fe 3e
       0.42245534 -0.08865397 -0.2195317 0.49759713
000320 53 b0 95 be 0f 1f 37 bc 12 f9 04 3d 98 f5 db be
       -0.29236087 -0.011176839 0.032464094 -0.4296081
000330 63 c2 ed be eb 2f d8 be 7e ab 7b be cd ad c6 3e
       -0.46437368 -0.42224059 -0.24577138 0.38804474
000340 24 74 58 be 49 20 7c 3e ef 9e 15 3e 43 74 1c 3e
       -0.21138054 0.24621691 0.1461141 0.15278725
000350 cd 30 78 3e d2 7f a5 be 8d e1 33 3e 9c 23 ac 3d
       0.24237366 -0.32324082 0.1756651 0.084052294
000360 e0 20 a8 be fd ed bc bd 46 78 5e 3e 10 98 23 3e
       -0.32837582 -0.0922508 0.21725568 0.15975976
000370 20 27 89 be 08 57 88 3e f1 5e 88 be 30 f0 cd be
       -0.26787663 0.266289 -0.26634935 -0.4022231
000380 11 32 04 3f c4 d6 42 3e 58 c8 22 be 20 9a 30 3e
       0.51638895 0.19027239 -0.15896738 0.17246294
000390 3e 3f 88 3d 65 d6 71 3e f5 26 02 be 88 97 07 be
       0.066526875 0.23616941 -0.12710173 -0.13241398
0003a0 0c 9e 24 3e 42 14 14 be 24 24 3c bd b0 56 20 bd
       0.16075915 -0.14460853 -0.045932904 -0.03914517
0003b0 96 6e 38 bf bd 7e 9d bd e9 d9 14 3f 78 b6 3c 3c
       -0.7204374 -0.07690189 0.58145005 0.011518113
0003c0 ee 1b ca 3d 7c 10 18 bb 3b 83 18 bf 74 87 b3 be
       0.098686084 -0.0023203185 -0.5957524 -0.3506428
0003d0 54 d1 2f bb 6d f8 95 3c ea 36 a7 3d c6 4b db bb
       -0.002682765 0.018306935 0.08164771 -0.0066923825
0003e0 49 89 53 be 25 4f 88 3d fb 0f 29 3e 0f ce 91 3e
       -0.20657839 0.066557206 0.16510002 0.28477523
0003f0 20 85 ba 3e 13 96 03 bd 70 5a 8f be 8a e3 40 3e
       0.3642969 -0.032125544 -0.27998686 0.188368
