app/src/main/assets/keras_model_cnn.tflite (tflite, 376820 bytes, 10 tensors)

dense_7/bias f4 [10]
000000 1d 39 44 bc 64 9c 9d 3d 4c 13 4f bd d3 65 15 3c
       -0.0119765075 0.07695845 -0.050555512 0.009118515
000010 fa 61 3d 3d 38 5b dd b9 a4 f0 25 bd 8f 9d ad 3b
       0.046236016 -0.00042220368 -0.040512696 0.0052983235
000020 50 08 39 3b 57 fa 2c bd
       0.0028233714 -0.04223093

dense_6/bias f4 [64]
000000 82 21 36 3d fa c3 8a bd 02 6b 50 bb 0e 63 81 bc
       0.04446555 -0.06775661 -0.0031802063 -0.015794303
000010 9b 84 23 3c 4d c8 e4 3c 7d c3 9f bd 7d b6 5e 3d
       0.009980346 0.027927542 -0.07800958 0.054373253
000020 bf 50 98 bc 11 16 31 bd 01 68 a5 bd a8 27 7a 3d
       -0.01859319 -0.043233935 -0.08076478 0.061072975
000030 8d e7 9b 3c d6 5a 22 bd ac 71 23 3d 5a 68 e0 3c
       0.01903131 -0.03963741 0.039903328 0.027393509
000040 70 04 44 bd 56 ea 20 3c 11 5b 75 3d e7 ec aa 3b
       -0.047855794 0.009821495 0.0599013 0.0052162292
000050 9c 50 ab 3c e6 68 6b 3c e6 95 5b bd cc 0e d2 bc
       0.020912461 0.014368271 -0.05360975 -0.025641821
000060 d6 71 81 3d d4 16 6a 3d 13 f3 92 bc a9 a7 50 3d
       0.063205406 0.057150677 -0.017938172 0.050941143
000070 1a 17 0f bd 7d 44 a5 3c ac 4b 07 bd 9e d0 a4 ba
       -0.03493414 0.02017426 -0.03303115 -0.001257438
000080 5e 30 0c bc cb 44 ab 3c ab 36 bd bc 64 39 56 bb
       -0.0085564535 0.020906826 -0.023097357 -0.0032688016
000090 cd b8 aa bc a9 1b f6 3c f9 09 3f bd a9 a9 8f bd
       -0.020840073 0.030042486 -0.04664037 -0.07014782
0000a0 56 c3 ae 3d de 85 3e 3d 52 50 80 3d 88 da de 3c
       0.08533351 0.046514384 0.0626532 0.027203813
0000b0 d5 e9 a1 bc 29 ef bf bc ad 08 1e bd 93 2e 90 3d
       -0.01976482 -0.02342947 -0.038582493 0.07040133
0000c0 4f 7b 58 bd 1a d1 00 bd bf d5 10 bd 2d 5a 1f bd
       -0.05285197 -0.031449415 -0.035360094 -0.038904358
0000d0 be 5c 7c 3d 5d 47 19 3c da e0 c6 bd fa 38 6e bc
       0.061611883 0.009355393 -0.09710856 -0.014539951
0000e0 a7 6a 66 bd 44 36 0f 3d 6a 56 82 bc 7d 2f 91 bd
       -0.056254055 0.03496386 -0.015910346 -0.07089136
0000f0 6c 35 07 bc 32 60 59 bd 88 55 91 bd 2d 34 bc 3c
       -0.008252483 -0.053070255 -0.07096392 0.022974098

conv2d_9/bias f4 [32]
000000 60 11 09 be 6e 82 19 be b8 5e 5a bd 3a 65 df bd
       -0.13385534 -0.14991161 -0.053312987 -0.10907979
000010 64 80 97 bc 26 89 b8 bc 9b 96 86 bc 92 5b 53 3d
       -0.018493839 -0.022526335 -0.016429236 0.051601
000020 9a b2 ed 3c 9e 34 84 3d 62 b2 be bc 46 ce 37 bd
       0.029015828 0.064553484 -0.023278419 -0.044874452
000030 ac 8c ea bd ce 58 02 be 4b 8c 67 ba b4 68 03 be
       -0.11452612 -0.12729189 -0.0008832856 -0.1283291
000040 24 cb 91 bd 20 7f 95 bc 5c 61 27 bd df 6f aa bd
       -0.07118824 -0.018249094 -0.040864334 -0.08322119
000050 d9 8b d5 bb c9 34 0f bc af d7 1a bd 89 67 79 bd
       -0.0065169153 -0.008740612 -0.03780335 -0.060889754
000060 ee 28 16 bc 02 4f d4 bc b9 1e 8f 3d 96 7d 05 3d
       -0.009165032 -0.02591658 0.06988282 0.03259047
000070 a1 2f 7e bd c8 21 62 bc aa 5e ea bc 0e d2 27 3d
       -0.06205714 -0.013801999 -0.028609592 0.040971808

conv2d_11/bias f4 [64]
000000 c8 1f 45 bd 2c 83 c0 bc 71 61 05 bd b2 85 58 3c
       -0.048126012 -0.023500048 -0.03256363 0.013215469
000010 ac 0f d9 bc 88 27 0a bd 92 ae 69 bc f4 5d 9a bc
       -0.02649673 -0.033729106 -0.014262812 -0.018843628
000020 be 9e 08 3d 35 63 31 bc 40 36 08 bd 42 38 32 bc
       0.033354513 -0.010826875 -0.03325486 -0.010877671
000030 56 13 22 3c 54 e9 f3 3c 9c 63 10 3d 39 2a a3 3c
       0.009892305 0.029774345 0.035251245 0.019917594
000040 46 54 21 3d bf 5b 15 bd 8b 20 76 bd 3a ff b8 3c
       0.03938701 -0.03646445 -0.06008963 0.022582639
000050 39 59 6a 3d 81 7f cf bc 90 e2 5b 3b e1 96 44 bc
       0.057213996 -0.025329353 0.003355179 -0.011998863
000060 51 10 37 3d 28 1f 57 bb ea 9d 66 bc f7 57 92 3c
       0.044693295 -0.0032824967 -0.014075736 0.01786421
000070 f0 fd 1e bc 47 4b 81 3d 9c 3c ed bc 49 ff 3d 3d
       -0.009704098 0.06313186 -0.028959565 0.046386037
000080 7f 81 4c bd da 9a 81 bc f3 53 84 bc 45 87 23 3d
       -0.049928185 -0.01582091 -0.016153311 0.039923925
000090 9c 19 07 be 3d de 86 bc 5f 15 85 3c 1f 2d 67 bc
       -0.13193363 -0.016463393 0.016245542 -0.014109879
0000a0 df fa 0d bd 2e 14 24 bc 5c 17 07 bd 4c f6 c5 3c
       -0.034663077 -0.010014577 -0.03298126 0.024165295
0000b0 13 fe ba bd a3 f5 11 bd 4c 73 d0 bc 40 7a d2 bb
       -0.09130492 -0.035634648 -0.025445603 -0.0064232647
0000c0 70 21 1c bd 62 95 84 bd 77 22 1f bd 00 b0 38 3c
       -0.038117826 -0.06473805 -0.038851228 0.01127243
0000d0 79 57 4a bc 70 82 62 3c f6 a1 04 3d 62 45 1b bd
       -0.012349957 0.013825044 0.03238102 -0.037907965
0000e0 52 ef a7 bc fd d5 54 3d 13 c2 34 bc b5 f0 b0 bc
       -0.020499859 0.051961888 -0.011032599 -0.021599153
0000f0 8b e5 1f 3c d4 12 40 bc 39 b4 49 bc a8 07 ef 3b
       0.009759317 -0.011723239 -0.012311035 0.007294614

conv2d_10/bias f4 [64]
000000 c9 31 b5 bd a2 37 f1 bd 34 2d ea 3c 24 b6 04 be
       -0.088473864 -0.11778189 0.028586008 -0.12960106
000010 af 96 54 3c 9c dc cf 3c 7d 7e b2 bd 18 9b 24 bd
       0.012975379 0.02537375 -0.08715532 -0.04018697
000020 3f 7e 93 bd 0f 50 8f bd e7 f0 91 3b d1 da f6 bd
       -0.07201814 -0.06997692 0.0044537666 -0.12053455
000030 30 40 01 3c 37 3a 9d bd 22 80 6a bd 07 d8 5b bd
       0.007888839 -0.07677119 -0.057251103 -0.053672817
000040 3d 63 e5 bc 83 33 5f bd c8 37 cd bc 9a fc d3 bd
       -0.028001422 -0.054492485 -0.025051013 -0.10350914
000050 d6 be b0 bd d2 f2 9e bd 79 0b b4 bd fa 8a b2 bd
       -0.08630149 -0.07761158 -0.08791251 -0.08717914
000060 93 74 a0 bd e3 95 9b bc dd 8d 9f 3d 94 67 fe bc
       -0.07834735 -0.01899237 0.0779073 -0.03105525
000070 b7 d2 3a bd f4 ab ad bd fc 4e dc bc 1c 08 31 bd
       -0.04561111 -0.08480063 -0.026893131 -0.043220624
000080 17 04 4e bd f5 69 ed bd ed f2 8c bd 9e ec 0b bd
       -0.05029687 -0.11592475 -0.06882272 -0.034161203
000090 7d 66 3c bd 36 c9 a3 bd 6d dc 84 bd a5 0f 93 bd
       -0.045996178 -0.07997362 -0.064873554 -0.07180718
0000a0 9d c3 b3 bd a6 3d 1f 3c 9b c8 b3 bb 18 4b 11 3d
       -0.08777545 0.009719288 -0.0054865605 0.035472006
0000b0 a6 61 ea 3c 62 8c 65 3d 7f a2 0c bc 33 cf 2b bd
       0.028611016 0.056042083 -0.008583664 -0.041945647
0000c0 c0 80 d0 3c 90 82 da bd 8e a1 54 bc 1b 91 b9 bd
       0.025452018 -0.10669434 -0.012977971 -0.0906088
0000d0 c9 1a 8e bd c8 7c 80 bd 84 41 ba bd 6f 72 94 3b
       -0.069387026 -0.062738 -0.09094527 0.004530243
0000e0 7b 81 c0 bd 58 aa 09 3c 2a 6d bc bd d3 dd 24 bd
       -0.093996964 0.0084024295 -0.09200509 -0.04025061
0000f0 8f c7 a6 bc ef 6b 4c bd fd b9 99 bd 38 10 0a bd
       -0.020358829 -0.04990762 -0.075061776 -0.033706874

sequential_3/dense_6/MatMul f4 [64, 576]
000000 90 8e 80 bd f2 c0 fe 3a d1 00 11 3e b2 5e a0 bd
       -0.06277192 0.0019436164 0.14160468 -0.07830562
000010 88 c0 98 bd b7 de 06 bd 71 31 6f bc 34 d7 74 3b
       -0.074585974 -0.03292724 -0.01459919 0.0037359716
000020 33 87 a4 bd 6b ca cc bc a1 cb d6 3c e8 83 18 bc
       -0.080336 -0.024998864 0.026220145 -0.009308793
000030 10 dc 54 3d db 11 d3 bd 78 53 3f 3b 1c 89 9b bd
       0.05196768 -0.1030614 0.0029194038 -0.07594511
000040 5f e5 6e 3d 97 86 17 3e 9b d8 65 bc fe 2d da bd
       0.058324214 0.14797436 -0.014028694 -0.106533036
000050 1c a5 a4 3d d3 4d 05 be c0 02 a9 3d c6 96 e9 bd
       0.080393046 -0.13017969 0.08252478 -0.11405711
000060 9a d5 b3 3c 54 20 c8 bd 0c ed b0 bc 47 0c 85 bc
       0.02195244 -0.09771791 -0.021597408 -0.016241206
000070 aa 67 3e 3e 35 a4 74 bd 2b f6 41 3d c4 9f 55 bc
       0.18594232 -0.059726913 0.047353905 -0.013038579
000080 a6 cd ba bd fe 9c 6c bd a6 44 31 3d 3f d7 41 3d
       -0.091212556 -0.057766907 0.04327836 0.047324415
000090 89 3a 3a 3d d0 05 6f 3d 42 2c fc bd bd f7 75 3d
       0.04546598 0.058355153 -0.12313129 0.060050715
0000a0 9d 7b aa 38 8b 72 31 3d 8f 56 f8 3b ac 80 89 3b
       8.1292565e-05 0.043322127 0.007578678 0.004196247
0000b0 95 cd c6 bd e4 4e 4d 3d ea 22 cc 3d 24 30 42 3d
       -0.097071804 0.050124064 0.09967597 0.04740919
0000c0 40 c7 4e 3e 7a 5f 9a bc cd c8 84 bd ec d7 01 3d
       0.20193195 -0.018844355 -0.06483612 0.03170006
0000d0 06 cb 62 be a8 94 8a 3d d6 15 49 be 52 f4 e9 3c
       -0.2214776 0.06766635 -0.19637236 0.028558884
0000e0 37 15 40 3d 80 7a a8 bd 0e 5f d9 bd 5b e8 b4 ba
       0.046895232 -0.0822649 -0.10613833 -0.0013802157
0000f0 cf de ea bd 3d 7b 9f 3b 26 41 1c 3e f0 43 cf bd
       -0.114682786 0.004866986 0.15259227 -0.1012038
000100 51 1a 14 be 1d ca 4b bd 55 09 71 3d 42 ef a6 3c
       -0.14463164 -0.049753297 0.05884679 0.020377759
000110 b9 08 26 3e 38 b0 c8 3c 42 53 2a bd f9 4b 1c 3e
       0.16214265 0.02449809 -0.041583307 0.15263356
000120 9c f8 26 3d fd ec 99 3d d3 f0 4c 3e 0b fd b5 3c
       0.040764436 0.07515905 0.20013742 0.022215387
000130 32 3d 66 3c c8 eb 94 bd 9c 40 80 bd 06 5a 62 bb
       0.014052676 -0.07271534 -0.06262323 -0.0034538521
000140 63 6b 86 bd 50 69 14 3d 35 09 04 3c a9 60 92 be
       -0.06563451 0.036233246 0.008058836 -0.2858937
000150 04 2d 3b 3e 28 8e 22 be 51 3d 8c bd 03 68 1c 3d
       0.18278891 -0.15874541 -0.06847633 0.03818513
000160 5a d3 2a be 2a 15 4a 3c c7 1c 35 3c 76 f3 52 bd
       -0.16682187 0.0123341475 0.011054224 -0.051501714
000170 07 1d f4 bd a4 47 7a bb f5 10 c0 bd e3 2c 31 3e
       -0.11919599 -0.0038189674 -0.09378234 0.17302279
000180 03 b1 02 3d 66 2d 03 bd 21 a5 84 3d 3c 30 3c bd
       0.031907093 -0.032025717 0.06476808 -0.045944437
000190 a2 f4 94 3d 9f 49 24 3e f4 e9 f4 3c b2 77 a4 3b
       0.072732225 0.16043709 0.029896714 0.0050191516
0001a0 18 db 91 3d 65 c2 88 bd 3b 13 96 bc d4 c3 10 bd
       0.07121867 -0.06677703 -0.018319717 -0.035343006
0001b0 39 0b 2d bd c5 22 89 bd 24 6d d7 bc 22 7b ae 3d
       -0.04224703 -0.06696085 -0.02629716 0.085195795
0001c0 d5 08 30 bd cd cf 07 bd 89 d8 af bc ad ed f5 3d
       -0.042977173 -0.03315716 -0.021465557 0.12008224
0001d0 8b ca 76 bd e8 de ae 3c 12 1c 1e be 39 81 23 3c
       -0.060251754 0.021346524 -0.15440395 0.00997954
0001e0 07 08 2a 3d fb b1 77 be c1 6a 9d bb 7f e6 1c 3d
       0.04151156 -0.24188988 -0.004803986 0.038305756
0001f0 ad e0 74 bc dd 66 50 3d 4f cc a4 bc 93 5f 81 3d
       -0.014946145 0.050879348 -0.020116953 0.063170575
000200 56 cf 1d be c6 1e e5 3d 4f 9c 45 3e 4d 84 1a bd
       -0.15411124 0.1118751 0.19297908 -0.037723828
000210 1c 5f 91 3e b4 e8 78 bd 60 d0 e6 3c 4e 83 9c 3c
       0.28392875 -0.060768798 0.028175533 0.01910558
000220 af 1c ec 3b b6 9f 07 be ad ac 9e bd f0 bb d5 bc
       0.007205568 -0.13244519 -0.07747779 -0.026090592
000230 75 9d 2d bc b4 98 60 bd 08 5f 43 be 21 c4 74 bd
       -0.010596623 -0.05483313 -0.1907922 -0.059757356
000240 e4 26 c8 bd 4c ce ec 3d e8 3c f8 3c 15 29 95 bd
       -0.09773043 0.115627855 0.03030248 -0.072832264
000250 b7 a1 97 bc d7 c3 1e be 0b 77 1a bd 57 08 13 3e
       -0.018509729 -0.15504394 -0.037711184 0.1435865
000260 f3 fb 02 3d 9a af 27 3d d1 23 10 3d e2 79 1c bd
       0.03197856 0.04093895 0.035190407 -0.038202174
000270 9f 7b 06 3e 20 3f e3 3d bb c6 aa 3c 28 c1 d7 bd
       0.13133095 0.110960245 0.020846715 -0.105348885
000280 55 da 9f 3c 80 7c c0 3c ee e2 96 bd 3e d1 ef bb
       0.019513289 0.023496866 -0.07367502 -0.007318645
000290 2a 26 a0 3d 42 64 c2 3c dd e8 e3 3d d7 4d d6 3d
       0.07819779 0.023729447 0.111283995 0.104640655
0002a0 30 c5 19 bc a6 52 81 3d 7a cf 87 3d a6 fe 01 3c
       -0.009385392 0.06314592 0.0663137 0.007934248
0002b0 b3 6b 19 be 51 08 ad bb ad 9b 17 3d bd 88 04 bd
       -0.1498249 -0.0052805324 0.0370137 -0.032356966
0002c0 dd c3 25 3e a4 3a 29 3e 40 a3 39 3c 6c e6 d4 3d
       0.16187997 0.16526276 0.011330426 0.10395512
0002d0 2a de fc bd f5 a1 85 3d b5 fb 26 be ac cc 63 3d
       -0.12347062 0.065250315 -0.16306956 0.055615112
0002e0 a0 84 de 3d 7c e9 2e 3e ab ec 1e bd ec e8 e1 3c
       0.1086514 0.17081255 -0.038799923 0.027576886
0002f0 8b a2 12 3d 03 1c 41 3d 2e 65 a1 3c 4c c0 e6 bd
       0.035799544 0.047145855 0.019701567 -0.112671465
000300 49 d1 07 bd 05 b7 11 bd 4f bd 0c 3e fb 7c b8 3d
       -0.033158574 -0.03557493 0.1374409 0.09008213
000310 f9 dd 10 3e 5d 92 59 bd 0e c3 03 bc 76 a5 51 bd
       0.14147176 -0.0531181 -0.00804211 -0.051183186
000320 35 27 84 3d a2 1b 55 3d 40 35 a8 bd 48 f5 72 3d
       0.06452791 0.052028306 -0.08213282 0.05931595
000330 ef b7 bf 3d 45 9a 05 3d a8 e3 86 be 88 0a bf 3d
       0.093612544 0.032617826 -0.26345563 0.093281806
000340 5a aa 7e 3c 0d 2d 21 3d ee 88 2d bd 87 c1 85 bc
       0.015543545 0.039349604 -0.042366914 -0.016327633
000350 1c a9 ea 3c 3d 43 93 bc 58 52 2c be a7 9e 01 3e
       0.02864509 -0.017976398 -0.16828287 0.12658177
000360 7a 9d 3a be 6a 7e 96 bd 56 65 08 3d 4f 98 03 3e
       -0.18224135 -0.0734833 0.033299766 0.1285107
000370 49 c2 01 3e 4a af 1b 3c 63 be a0 3d 00 59 49 bc
       0.1267177 0.009502241 0.078488134 -0.012289286
000380 4f 25 bc bc 9a a3 7e bd f1 ed 30 bd d6 79 7b bc
       -0.022967009 -0.06216774 -0.04319567 -0.015348872
000390 fc 00 d6 bc 8e 23 19 3e 92 6f e2 3c 4a 7e 38 3d
       -0.026123516 0.1495497 0.027641091 0.045042314
0003a0 eb 74 87 3d 8e 81 b5 bc 84 72 65 3a cc d9 23 bd
       0.06614097 -0.022156503 0.0008752721 -0.04000263
0003b0 12 50 08 3d 5a 1a 87 bc 92 d0 f5 bb 3d f7 ce bd
       0.033279486 -0.016492058 -0.00750167 -0.10105751
0003c0 f1 f3 17 3e d5 f7 a6 3d df 54 4a be 7e 3b 7b 3d
       0.1483915 0.08152739 -0.19758938 0.061336033
0003d0 e7 e1 c9 bd 86 b6 38 3e 80 e6 b3 3d 70 9e 16 3e
       -0.098575406 0.18038377 0.08784199 0.14708877
0003e0 6d 9b cc bd a2 5d 0b be c7 6a 35 bc da 55 84 bd
       -0.099905826 -0.13609937 -0.011072821 -0.064616874
0003f0 f2 ca 01 3e 88 c7 76 bd 56 0b e8 ba ba ae d9 bd
       0.12675074 -0.06024888 -0.0017703574 -0.106290296

sequential_3/dense_7/MatMul f4 [10, 64]
000000 db 29 bf bd 3e d6 e8 3c 56 c4 cb 3d f2 71 99 be
       -0.09334155 0.028422471 0.099495575 -0.29969746
000010 78 56 6a be 40 e6 2e 3e 8a 27 79 3d ee 81 1b 3e
       -0.22884548 0.17080021 0.060828723 0.15186283
000020 16 1e 02 be 37 be 89 3d 68 b5 97 3d 8f 48 08 be
       -0.1270679 0.06725734 0.07407647 -0.13308929
000030 a9 47 e1 3d 3c b8 51 3e 00 19 4e 3e 8d 65 97 bb
       0.10999996 0.20480436 0.20126724 -0.00462026
000040 f5 87 51 3d c9 ca 7a 3d d4 b8 6e 3b 3f 2a 36 3e
       0.05115505 0.061228547 0.0036426084 0.17789553
000050 07 96 b6 bc 88 02 1f be b2 c9 31 be 7e 94 a7 3e
       -0.022288335 -0.1552831 -0.17362097 0.32730478
000060 51 8a ef 3d 96 3e 1e be 8d 2c a2 bd 61 a4 18 be
       0.11696304 -0.15453562 -0.07918654 -0.14906456
000070 6e d5 03 be 94 c3 81 3e df 91 6d 3e 94 7d d5 3d
       -0.12874386 0.25344527 0.23200177 0.10424343
000080 fc 77 77 3e b6 83 6d 3d 14 ed 16 bd 0b 6c dd bb
       0.24166864 0.057986937 -0.03684719 -0.0067572645
000090 21 23 80 3e 3f 6a b7 be b2 82 16 3e 27 a5 ea bd
       0.250268 -0.35823247 0.14698294 -0.114572816
0000a0 44 e2 54 be 5a e2 51 3e fd db ae bc e4 85 e2 be
       -0.20789438 0.20496503 -0.021345133 -0.44242775
0000b0 e8 78 df be 92 85 3b 3e 55 18 20 be 92 3e 5b be
       -0.43646932 0.18312672 -0.15634282 -0.21410587
0000c0 f1 24 85 be 1c 35 77 3e e2 9d 4d 3d 00 f7 57 be
       -0.26004747 0.24141353 0.050199397 -0.21090317
0000d0 05 f1 db be fa 1b d6 be de fe 28 be 20 e4 67 3e
       -0.4295732 -0.4181822 -0.16503474 0.22645617
0000e0 03 cd 70 3e d1 3e 34 bc 58 94 08 be e7 2b 2b 3e
       0.23515706 -0.011001305 -0.13337839 0.16715966
0000f0 05 10 1f be 10 df c0 3d 9f b5 e1 bc f8 d8 26 be
       -0.15533455 0.09417546 -0.027552424 -0.16293705
000100 a8 df a4 be e9 b0 08 3d 28 07 8d 3e 3b 99 7c ba
       -0.32201886 0.03337184 0.27544522 -0.000963587
000110 fb d6 91 3e 2d 5b 69 be 0b f8 56 be 1b 81 90 3e
       0.2848433 -0.22788687 -0.20993058 0.282235
000120 a9 9e ce bd bc ee 14 be 1a 0c e9 bd e0 93 7a be
       -0.10088856 -0.14544195 -0.11379261 -0.24470472
000130 1c 97 4e 3e ce 58 3c be dd 95 79 bb 17 d9 5e 3e
       0.20174831 -0.18393251 -0.003808371 0.217625
000140 95 80 08 be 92 e3 a9 be 90 c0 11 3e ed 95 5f 3e
       -0.133303 -0.33181435 0.14233613 0.21834536
000150 3b 4d 69 be 1d 70 d1 bc f8 9c df 3d a1 4b 5c bd
       -0.22783367 -0.025566155 0.10918611 -0.053783063
000160 10 11 de bd 69 24 ed bc 4f f1 03 3e 1c d5 8f 3e
       -0.10843098 -0.028948026 0.1288502 0.28092277
000170 c2 57 58 be f6 1a 8e bc f3 ef 10 be bf 30 b0 be
       -0.21127227 -0.01734684 -0.14154033 -0.3441219
000180 a6 24 4f 3e e4 2c bd 3b a5 93 04 3e f7 3b ec be
       0.20228824 0.0057731736 0.12946947 -0.461395
000190 bb 92 38 be 92 24 88 3d db 1e 3b 3e 95 3b 0d bd
       -0.18024723 0.066476 0.18273489 -0.03448065
0001a0 2c d2 7b 3e 1c eb 20 be dc f2 e4 3d 27 b4 dd bd
       0.24591893 -0.15714687 0.11179134 -0.10825377
0001b0 9a 78 08 be b4 e6 7e be fd b6 50 be 56 ee 08 3e
       -0.13327256 -0.24892694 -0.20382304 0.13372168
0001c0 49 68 9b bc 26 1e 2c be ca f4 2e 3e 73 73 85 3e
       -0.018970625 -0.16808376 0.17085567 0.26064643
0001d0 ff d7 62 bc 6c d0 1b be 83 18 ca 3d c8 fa 92 be
       -0.013845443 -0.15216225 0.098679565 -0.28706956
0001e0 1f 14 45 3e e5 a9 67 3e d7 e9 4d be 85 a6 2a 3e
       0.19245957 0.22623403 -0.20108734 0.16665085
0001f0 67 6d ba be e2 95 a5 bc c3 16 8d 3b 83 c0 1c 3e
       -0.36411592 -0.020213071 0.004305692 0.15307812
000200 8d b0 1e be cc c8 93 3e 8f 65 28 3e ca a6 86 bd
       -0.15497036 0.28864133 0.16444992 -0.06574781
000210 ae 43 ef bd 27 46 f5 3c 53 be bd 3d e7 1b 82 be
       -0.11682831 0.029940678 0.09264817 -0.25411913
000220 3e 33 a4 be 0c 44 d8 be 97 b2 c9 bd a2 a2 8f be
       -0.32070345 -0.42239416 -0.098485164 -0.28053766
000230 13 0c 90 3e b8 c9 94 3e 8e aa 54 be ad a1 32 bd
       0.28134212 0.2906015 -0.20768186 -0.043611217
000240 80 fc 0a 3e 10 72 87 bd f9 da fe bd 38 f3 5c 3e
       0.13572884 -0.066135526 -0.124441095 0.21577156
000250 92 49 f0 bc 21 b2 a6 3e 4b 72 e6 bd d6 a4 ff bc
       -0.029331956 0.32557777 -0.112522684 -0.03120653
000260 e8 4f a1 3d 34 3c 84 bc 39 0b 8f 3d c1 4f 1e 3b
       0.07876569 -0.016141988 0.069845624 0.0024156424
000270 6d 7a ac 3d 10 84 5e be 2d cb dc 3d a8 79 15 be
       0.08421788 -0.21730065 0.1078094 -0.1459719
000280 0d b3 2c be fc 77 67 be 62 2d 3a 3e dc c4 7d be
       -0.16865177 -0.22604364 0.18181375 -0.24782127
000290 47 f4 fe bd 1c 62 95 be 97 e2 91 3e dd 36 5a 3d
       -0.12448936 -0.29176414 0.28493187 0.053274978
0002a0 5c f8 f1 bc 9a f7 93 be cd 4d 7b 3d 09 78 b0 3e
       -0.029537372 -0.28899843 0.061353493 0.3446658
0002b0 3b 9c 82 be 42 db 23 3e d5 85 90 3d 04 63 c6 be
       -0.2550982 0.16001609 0.070567764 -0.38747418
0002c0 7f bd 49 3d 26 bc 0b 3e c9 58 4e 3d d1 ff 05 3d
       0.049252983 0.13645992 0.05037764 0.03271467
0002d0 db 06 5f be 77 7e ae 3e 59 3c 83 3b aa 35 ab 3e
       -0.21779959 0.3408086 0.0040049967 0.3343938
0002e0 fd 78 98 bd 38 4f 88 3d f1 5b 8a bd b0 56 ee 3d
       -0.07444952 0.06655735 -0.06755818 0.11637628
0002f0 4f f1 11 3d 50 4b cc bd bf fc 42 bd 29 ff 4d 3e
       0.03563052 -0.09975302 -0.04760432 0.20116867
000300 7f d3 fb 3c 53 da d2 bd 23 1c bc be ef 45 a4 be
       0.030740498 -0.10295548 -0.36740217 -0.32084605
000310 20 e5 94 be 43 8c a7 3c 6d ad a2 3b 73 dd 82 3d
       -0.29081059 0.020452624 0.0049645216 0.06389894
000320 c6 db 84 be c4 47 97 be b3 26 58 be b5 5b 14 be
       -0.25948924 -0.2954694 -0.21108513 -0.14488108
000330 50 94 93 3e 36 8c a4 bd bf 5b 9d be 51 53 c5 be
       0.2882409 -0.080345556 -0.3073406 -0.38540128
000340 5a f0 07 3d b6 b1 88 3d 89 8a 2f 3e e2 94 77 3e
       0.0331882 0.06674521 0.1714269 0.24177888
000350 8c a2 d1 3d 08 4b 2a be 4f eb 6e be 89 bd 0c be
       0.102360815 -0.16630185 -0.2333195 -0.13744177
000360 4e 46 38 3e d3 be 85 3e fe 17 8a be da 91 06 3e
       0.17995569 0.2612215 -0.2697143 0.13141575
000370 e2 7c f1 bb 68 f1 35 be da bd 7d 3d 28 a6 df 3c
       -0.0073696235 -0.1776787 0.061948635 0.02730091
000380 d8 cc ea bd e8 4e 4b be 73 fa 84 be 0c 4e cf 3c
       -0.11464852 -0.19854319 -0.25972328 0.02530577
000390 4f cb 75 bd 99 41 8f be a2 12 79 bd a7 ac e9 bd
       -0.060008343 -0.27979735 -0.060808785 -0.11409884
0003a0 9e ee 50 3e 86 d7 62 3e ed 91 8f 3d 3d a8 a0 be
       0.20403525 0.22152528 0.07010255 -0.31378356
0003b0 d4 09 a0 3e 41 61 1d 3e 19 19 0a be b3 6a 19 3e
       0.31257498 0.1536913 -0.13486136 0.14982109
0003c0 fa 43 32 3e 22 ae 1f be f0 15 e0 bd 24 df 5e be
       0.17408744 -0.1559377 -0.10941684 -0.21764809
0003d0 5b 28 5e 3e 0b 8c af 3e 80 79 da 3d c3 5b 8c bd
       0.21695082 0.34286532 0.106677055 -0.0685344
0003e0 fe 9f d2 bd 82 6b 91 be 27 64 93 be ce 33 7a 3e
       -0.10284422 -0.28402334 -0.28787348 0.24433824
0003f0 a2 88 26 3e a4 e7 08 be e3 21 85 3d dc aa 0f be
       0.16263059 -0.13369614 0.06500604 -0.14030021

sequential_3/conv2d_9/Conv2D f4 [32, 3, 3, 1]
000000 73 8d 17 3d b9 a2 44 3d ab 02 ab bc a6 49 31 bd
       0.03700013 0.048006747 -0.020875296 -0.043283127
000010 ed 67 c7 3d 55 c5 cc 3c 26 66 0a ba 60 0c e3 3d
       0.09736619 0.024996439 -0.00052795035 0.11086345
000020 d7 9a b3 3d d6 a2 af 3d 1c dc 14 3e 33 d4 23 be
       0.08769768 0.0857598 0.1453709 -0.15998916
000030 49 1d 82 bd 1e 5c 06 3e ac e0 2a 3e ad 38 94 3d
       -0.06353242 0.13121077 0.16687268 0.072373725
000040 1b 15 c8 3d ad f8 0c be 25 bc 38 3d d2 d7 26 3e
       0.097696505 -0.13766737 0.045101304 0.16293266
000050 f7 06 d6 bc fc 01 45 bd 22 4b 2f 3e e3 c9 0f bd
       -0.026126368 -0.048097596 0.17118505 -0.035104644
000060 db 71 81 be 8f 46 b9 bd e9 33 34 3c 1f 77 ea 3d
       -0.25282177 -0.09046661 0.0109987045 0.11448502
000070 cf c9 00 be 89 1b 7e be 85 5f ff 3d 72 20 79 3e
       -0.12576984 -0.24815191 0.12469391 0.24328783
000080 ce 63 40 be 6c 29 cb bd 6a 71 35 3e d3 19 d2 3d
       -0.18788072 -0.0992001 0.17719045 0.10258832
000090 33 11 c5 ba 33 1d 8f be 08 49 80 be cb 1b 3f 3d
       -0.0015035033 -0.27951965 -0.25055718 0.046657365
0000a0 a0 72 c8 3b c9 ba cf 3c c6 f7 87 3e 47 3a b8 3c
       0.00611718 0.02535762 0.26556224 0.022488726
0000b0 d4 22 06 3e 6f 31 e1 3d cb 69 5e 3e 8e 54 d7 bd
       0.13099223 0.10995757 0.21720044 -0.105141744
0000c0 79 96 fd 3d c8 f9 8a 3d f9 dc aa be f3 a0 fb 3d
       0.12382216 0.06785923 -0.33371714 0.12286558
0000d0 3b 7b 16 be e8 95 be bd 24 30 3f be 3f 4d 12 bd
       -0.14695446 -0.09305936 -0.18670708 -0.0357182
0000e0 60 34 04 bd d9 61 25 be 11 89 28 3e 58 e1 1d 3e
       -0.03227651 -0.16150607 0.16458537 0.15417993
0000f0 8f cd 17 3e 05 64 b9 3c c2 f8 c9 bd 23 fa 6f 3e
       0.14824508 0.0226307 -0.098619 0.23435263
000100 f2 c6 56 3e ee a2 ec 3c cb 01 9b bd 85 7d 3c bd
       0.20974329 0.028886285 -0.07568701 -0.046018142
000110 30 bb 6f 3d b9 09 8c be 4f 45 79 be 1a b3 31 be
       0.058528125 -0.27351168 -0.24342845 -0.17353478
000120 d5 84 7e 3e e3 d8 60 3e 6d 9f 38 3d d5 b8 1f 3b
       0.24855359 0.21957736 0.045073915 0.0024371643
000130 58 10 9f 3d bf 5e 3d bd e6 40 98 be 1b 0b b4 be
       0.07766789 -0.046232935 -0.29737014 -0.35164723
000140 9b 21 cd bd fe af 60 3e 89 35 01 3b e5 11 72 be
       -0.10016175 0.21942136 0.0019715747 -0.23639639
000150 3e c1 62 3e 14 08 d5 bd 31 90 b5 be 24 88 ac 3c
       0.22144029 -0.104019314 -0.35461572 0.02106101
000160 15 fa 61 be 5b d0 6d be 68 8f 42 be 28 9e 3e be
       -0.22068055 -0.23224013 -0.19000018 -0.1861502
000170 f0 ed 68 be 56 50 e0 bd a5 fa 8d bd c4 95 51 3e
       -0.22747016 -0.10952823 -0.06932572 0.20467287
000180 1e cb 8b 3e 2b b2 bc 3d bf 03 00 3e a8 7f 7c be
       0.27303404 0.0921367 0.12501429 -0.24658072
000190 0b 1e a3 be 0b b7 06 bd 8d 1b d5 3d 23 0c a1 bd
       -0.31858858 -0.032889407 0.104056455 -0.07863643
0001a0 eb f3 c1 3d e3 6e 86 3d 1b ec 3d 3e bf 4d e6 3d
       0.09470352 0.06564119 0.18547098 0.11245298
0001b0 4a 97 02 be 96 3b 3d bd f6 a4 11 3e c8 ef bf 3d
       -0.12753025 -0.046199404 0.14223084 0.093719065
0001c0 4c b0 4c 3e 2e a9 08 3d 68 3f 26 3d 62 59 bc bc
       0.19989127 0.033364467 0.040587813 -0.02299184
0001d0 61 30 74 be ca ec 29 3e 95 32 51 be 87 1b 80 be
       -0.2384658 0.16594234 -0.20429452 -0.25021002
0001e0 14 c0 e8 3d 17 2e 89 bd f3 ad c0 bd 6d 17 28 3e
       0.11364761 -0.06698244 -0.09408178 0.16415186
0001f0 b9 cb 50 bc 1e 1a 38 3e 6d de 42 bd ce 18 6b 3d
       -0.012743884 0.17978713 -0.047575403 0.057396702
000200 e9 cf 32 3e 30 0f 7e bc f3 a6 38 3c 4b 69 65 3e
       0.17462124 -0.015506551 0.011270273 0.22403447
000210 07 33 9a be 98 52 28 be 57 fe 70 3d 53 4b 5a 3d
       -0.30117056 -0.16437757 0.058836307 0.05329449
000220 92 91 c2 bc 5f 12 c8 3d 80 b8 68 3c 10 25 e3 bd
       -0.023751054 0.09769129 0.0142041445 -0.110910535
000230 09 61 7a bd c0 51 fc bc 34 1a fd 3d 17 7a 23 3d
       -0.061127696 -0.0308007 0.123585135 0.039911356
000240 3a 30 2f bb f1 d2 d0 3d ba 86 c5 3d 6e bf 4f bc
       -0.0026731626 0.10196484 0.09644838 -0.012679918
000250 4a 89 1f be 8d e1 3f bc 1a ab 21 bd 11 3c bc bc
       -0.15579715 -0.01171149 -0.039469816 -0.02297786
000260 9d 7a dc bd db c8 96 be 58 aa 1c be df cc 0e bd
       -0.10765574 -0.29450116 -0.15299356 -0.03486335
000270 ae 5f fe bb 10 32 b6 3d 8c e4 d1 3d 51 7b 87 bc
       -0.0077628708 0.088962674 0.1024867 -0.016538294
000280 ce 0d fb 3d 58 e8 b6 3d 40 53 18 3e 23 a4 0c be
       0.122584924 0.08931035 0.14875507 -0.13734488
000290 ee e0 21 be 8b 47 28 3e 12 2e 75 bd 73 51 4e be
       -0.1580846 0.16433541 -0.05985839 -0.20148258
0002a0 0d 8f c8 3d c2 1c 5e 3d 96 4f 18 bd 65 7c e2 b9
       0.0979291 0.054226644 -0.037185274 -0.0004319876
0002b0 dc cb 40 3e 0e 09 91 be 1f b3 0e be d8 19 21 3e
       0.18827766 -0.2832722 -0.13935517 0.15732515
0002c0 ad fc f1 3d 6b d2 62 be 15 9a 21 3e 7d 91 b3 bb
       0.11815772 -0.2215058 0.15781434 -0.00547999
0002d0 51 a1 cd bd 5a a9 d6 3c b4 7f 59 3e 96 66 9a 3c
       -0.10040534 0.0262038 0.21240121 0.018847745
0002e0 31 f3 14 bc fe 8d 74 3e 42 80 3e be f5 9d 37 be
       -0.0090911845 0.2388229 -0.18603614 -0.1793135
0002f0 c1 a2 d2 bd 12 b8 9a 3d 32 68 57 3e fc fa 74 3e
       -0.10284949 0.0755464 0.21035841 0.23923868
000300 84 18 25 be 51 98 a1 bd f0 17 1d 3e ac be 5b be
       -0.16122633 -0.0789038 0.15341163 -0.21459454
000310 8e 29 3e be 70 40 ed bc 55 6b 02 3e d1 79 1f 3e
       -0.1857054 -0.02896139 0.12736256 0.15573813
000320 7a 0b 4c be 66 cb 6b 3e cb 25 e5 bc c7 f1 79 be
       -0.19926253 0.23026809 -0.027972123 -0.24408637
000330 a2 ff dd 3d ff bc 60 bd e4 88 ec bd df 9f cf 3d
       0.10839774 -0.05486774 -0.11549547 0.10137915
000340 24 0c e3 bc 42 29 e3 bd fd 18 fc 3d 97 88 2b bd
       -0.02771575 -0.11091854 0.12309454 -0.04187831
000350 9c e2 55 be ea df b6 3d af 00 a6 3c ad f6 98 3d
       -0.20887226 0.08929427 0.020263998 0.07468925
000360 2d 30 fc 3d c3 62 f6 3d 04 bb 58 3e 07 ec 69 3c
       0.12313876 0.12030556 0.21165091 0.014277465
000370 e4 71 1a 3e 2a 91 bb bd ae 55 04 be 97 55 c3 be
       0.15082508 -0.09158547 -0.12923309 -0.38151237
000380 0b 14 4b be a2 c2 ba be f2 4f 91 3d e4 49 a3 3d
       -0.19831865 -0.36476618 0.070953265 0.07973078
000390 27 db b6 bd a3 07 e9 3d f6 b7 04 3e 1e 60 cb 3c
       -0.08928519 0.1137841 0.129608 0.024826106
0003a0 d7 90 9e bd 61 1d d6 3d 67 84 53 3c 5e b9 6a 3e
       -0.0774247 0.10454822 0.012909985 0.22922274
0003b0 20 30 f0 3d ef a2 d5 be b2 4f e6 be 4d c8 5c be
       0.11727929 -0.4172587 -0.44982678 -0.21560784
0003c0 c0 da 59 3e 9b 14 5a 3d 80 bf b2 bd a3 5b b6 be
       0.21274853 0.053242307 -0.08727932 -0.35616788
0003d0 a0 71 f3 be 45 60 dc be a5 cd c5 bd 62 8d 88 3d
       -0.47547626 -0.43042198 -0.09658364 0.06667592
0003e0 03 7b c0 3d 42 a0 c9 bc de 91 0d 3e 15 e6 7e 3e
       0.093984626 -0.02461255 0.13825175 0.24892457
0003f0 51 04 d4 3c 6a a0 a3 bb 97 a6 a0 be 22 46 bf 3c
       0.025880964 -0.004993488 -0.31377098 0.023348872

sequential_3/conv2d_10/Conv2D f4 [64, 3, 3, 32]
000000 d5 c8 2a bd 83 b6 06 3b c7 25 49 bd d8 ad 0b be
       -0.041695435 0.0020555563 -0.049108293 -0.13640535
000010 e8 ad 46 3d 86 6a 8d be 6a 7b 91 bc db 2e a7 3c
       0.048505694 -0.27620333 -0.017759044 0.020408085
000020 36 e7 a3 bc 50 de 27 be 57 10 4a bd 79 84 c6 3c
       -0.02000771 -0.16393399 -0.04933199 0.02423309
000030 59 a2 12 be 7d f5 11 be 45 ea bc 3d 30 b6 99 bd
       -0.14319743 -0.14253803 0.09224371 -0.07505453
000040 a5 1f 27 bc 3e 16 0d 3d c4 5c 84 bd 53 76 2f bd
       -0.010200416 0.03444504 -0.06463006 -0.042837452
000050 42 da 5d 3e 0c 31 a6 3d 9c a2 47 be b7 93 f3 bd
       0.2166529 0.08114824 -0.19495624 -0.11893409
000060 ce f8 c0 bc 45 ff c4 3d 8c ba 1d bd 3f 1c 6d bd
       -0.02355614 0.09619001 -0.038507983 -0.057888266
000070 ec 7d 5a bc c8 a0 f9 bd 06 cd 94 bd bf ea 88 3e
       -0.013335686 -0.1218887 -0.072656676 0.26741597
000080 d8 af 10 3d d8 a8 07 bc 56 bc e4 3d ef 4b 3c 3e
       0.035323948 -0.008280002 0.11168735 0.18388341
000090 0a d2 81 3d dd 3a eb bd a7 cb a9 3c 44 1f 31 bd
       0.0633889 -0.11485837 0.020726992 -0.043242708
0000a0 89 58 98 bd 70 c4 56 be 38 a5 ac 3b 50 39 b2 3c
       -0.07438762 -0.20973372 0.005268719 0.021755844
0000b0 36 db f0 3c 97 b4 ad 3d 89 14 11 3e 3e db 86 3d
       0.029401403 0.084817104 0.1416799 0.06584786
0000c0 26 ac 46 bb 28 67 da bd f1 80 aa 3d 33 e2 4c 3e
       -0.003031501 -0.10664207 0.08325375 0.20008163
0000d0 e5 e7 d9 3d c4 a0 15 3e 02 04 8c 3d 71 1e 97 3d
       0.106399335 0.14612108 0.06836702 0.07378853
0000e0 d5 57 2e bd 61 38 39 3d 74 fd 98 bc dc 05 2f be
       -0.042564232 0.045219783 -0.018675543 -0.17092079
0000f0 e5 eb 37 3e 96 2f 80 3d 60 03 1c 3e 5b 36 3c 3e
       0.1796108 0.06259076 0.15235662 0.1838011
000100 c1 4a 13 bc 84 8f af bc 51 2c 5b 3d d0 67 18 38
       -0.008989991 -0.021430738 0.05350906 3.6336307e-05
000110 b6 91 2f 3d 0a 42 e1 bc 54 93 6c bd c3 97 d1 bc
       0.04286357 -0.02749731 -0.05775769 -0.025585061
000120 1b 2e 22 bd 4b 38 13 be 5e 6a 6e 3d e7 0e 9f 3d
       -0.03959475 -0.14376943 0.05820691 0.07766514
000130 51 cd 9a bd 10 4a 20 3e 74 dd 04 be 7b 04 c7 3d
       -0.07558692 0.15653253 -0.12975103 0.097176515
000140 31 e3 f0 bd 53 31 12 3c 5c 71 c1 3d 04 dd 34 bd
       -0.11762083 0.008922893 0.0944545 -0.04415609
000150 1a 46 52 bd ae 1f 68 3d 9d da f9 3a 6b 30 d4 3d
       -0.051336385 0.056670837 0.0019062344 0.103607975
000160 ea 77 3e be 19 70 fa bb cd 38 e1 bd fc af 15 bc
       -0.18600431 -0.0076427576 -0.10997162 -0.009136196
000170 88 ec b8 3d fe d1 3c bd e4 6b 07 3e 4e 91 c1 bd
       0.0902949 -0.0460987 0.13224751 -0.09451543
000180 cd 21 cf bd c6 95 40 bd 0c 93 08 be ce 56 f8 bd
       -0.10113869 -0.047017835 -0.13337344 -0.12125932
000190 d9 9f 22 be b3 0f 41 be 67 3a b3 3c 06 04 dc bd
       -0.1588129 -0.18853645 0.021878434 -0.10742955
0001a0 ef f3 c0 bd a1 73 2f bd 9b 27 24 be c2 f5 b0 3c
       -0.09421527 -0.04283488 -0.16030733 0.021601561
0001b0 9d 98 dc bd b2 d0 ae bd 52 fc 04 3c 26 83 3a bd
       -0.10771296 -0.08535899 0.0081167985 -0.04553523
0001c0 1d a9 a6 3a ab 44 64 3c 05 c3 83 bd 06 09 8c bd
       0.0012715195 0.013932387 -0.064336814 -0.068376586
0001d0 b4 9a ca 3a ff 80 c6 3d e9 6a 5a be 32 90 f0 bd
       0.0015457482 0.09692573 -0.21329845 -0.11746253
0001e0 df f6 ce bc fe a0 57 bc aa 44 32 be c6 db 13 be
       -0.025264202 -0.013160942 -0.17409006 -0.14439306
0001f0 eb 1d 6a be a6 8b e5 bc 76 fd 05 be bd f2 39 3d
       -0.22862975 -0.028020691 -0.13084969 0.04539751
000200 f2 28 94 3b 75 1d ea bc 29 39 4a bc 55 4f ac bd
       0.0045214826 -0.0285785 -0.01234273 -0.08413569
000210 d2 1c 6a be e5 75 1c be 8d 13 0d 3d 3c d1 d2 bd
       -0.22862557 -0.15279348 0.034442473 -0.102938145
000220 00 47 13 be 85 71 93 be 48 3e 9f bd 2c 09 d3 bd
       -0.14382553 -0.28797546 -0.07775551 -0.10304484
000230 59 46 51 bd d3 be 34 3c d3 55 4d 3d c1 37 ab bc
       -0.05109248 0.011031824 0.050130676 -0.020900609
000240 45 8d 8e bd 64 4d 71 bd e8 c2 b4 bd 4e 1b 3c 3c
       -0.06960539 -0.058911696 -0.08826238 0.011481119
000250 63 68 76 bc c8 b0 1f 3d 89 7c 76 be 11 26 e3 3c
       -0.015039536 0.03898695 -0.24070944 0.027728112
000260 c3 49 c9 bd a8 fe 14 3d 9b f8 29 bd 35 0e 85 be
       -0.09828522 0.03637567 -0.041496854 -0.25987402
000270 cf c9 6e 3c 72 e1 ac 3c d8 24 16 be 8d 4d 5a 3d
       0.014574482 0.021103594 -0.14662492 0.053296614
000280 7f f5 cd 3b 36 77 38 bd da 7c a2 3b 52 f2 19 3d
       0.006285369 -0.045035563 0.004958731 0.03758461
000290 63 b0 01 bd 7b 03 63 bb 6c db 06 3d d1 26 d0 bc
       -0.031662356 -0.0034639526 0.0329241 -0.025409134
0002a0 21 5e a4 bd b2 ca 1b be 32 27 84 bd 86 69 fb bd
       -0.08025766 -0.15214041 -0.064527884 -0.122759864
0002b0 3c 65 9a bc 0d a8 68 3d 07 8d 24 3c b4 03 db 3c
       -0.0188471 0.05680089 0.010043389 0.026735164
0002c0 f2 6f 4c 3d fb 5d c6 bc b2 2b 4f be 5f 15 0f be
       0.049911447 -0.024214735 -0.20231512 -0.13972996
0002d0 4c 48 98 bd 8e 12 b1 bc 42 d9 11 be a9 82 2b be
       -0.074356645 -0.021615293 -0.14243034 -0.16749062
0002e0 5b c4 b2 3d 28 71 98 bd 99 d4 e1 3b 1b a1 00 bd
       0.08728858 -0.07443458 0.0068917987 -0.031403642
0002f0 93 44 5f 3c 2e c7 57 bc da db 94 bd 73 8f 43 be
       0.013627189 -0.013170047 -0.07268496 -0.1909769
000300 a7 b8 c9 bd c0 92 c3 b9 7e ed b6 bc 8a d9 dd bd
       -0.09849673 -0.00037302636 -0.022330042 -0.10832508
000310 67 15 fa 3b 60 b2 81 3d 0a a5 8a 3d 38 20 1c 3c
       0.007631946 0.063328505 0.0676976 0.009529166
000320 b0 c1 d2 ba 00 e8 91 bc 40 c5 a4 3c a8 92 08 3e
       -0.0016079452 -0.017810822 0.020113587 0.13337195
000330 88 d1 37 3d b5 ea e6 bd 8f 0d af bc d1 59 07 3d
       0.04487756 -0.112752356 -0.02136877 0.03304464
000340 3d 5b 08 be d4 06 90 3d ce 5c 2e be 14 75 6f ba
       -0.13316055 0.07032552 -0.1702759 -0.00091345725
000350 68 9d b7 bd af b0 28 bc dd 7a 93 bd d5 d0 08 be
       -0.0896557 -0.010296031 -0.07201169 -0.13360913
000360 d5 23 37 bd c6 c2 b0 3c 26 ce 09 be 52 dd 12 3e
       -0.044711906 0.02157725 -0.13457546 0.1434224
000370 15 5f 56 bd aa 75 d7 bd 47 a0 4a be 8c c1 28 be
       -0.05233677 -0.105204895 -0.19787703 -0.16480082
000380 52 3e 82 3d 3c 58 fd 3a f5 03 8a bd b4 af 48 be
       0.06359543 0.0019328664 -0.06739036 -0.19598275
000390 8e 3b 70 bd 95 1b ad bc c8 5b aa 3d fb 6b ec bc
       -0.058650546 -0.021131316 0.08318287 -0.028860083
0003a0 3e c6 fb 3c 2b de 21 3d bc b2 39 bd aa 30 67 3d
       0.030734178 0.039518517 -0.04533647 0.056442894
0003b0 b3 56 df 3d 50 24 40 bc 72 00 84 bd 2f e4 31 3d
       0.109052084 -0.011727408 -0.064453974 0.043430503
0003c0 68 38 c1 ba f9 a5 36 3d 76 05 1c be fa 2d ce bd
       -0.0014741542 0.044591878 -0.15236458 -0.10067363
0003d0 08 56 b9 bc 61 b7 b4 bd ff 83 f4 3b 51 ba ed bd
       -0.02262403 -0.08824039 0.007462024 -0.11607803
0003e0 90 6f 97 3d 4b e7 1b bd a2 82 04 be 0f 84 03 bd
       0.07394326 -0.038062375 -0.12940457 -0.032108363
0003f0 77 e3 2b bd 5a 50 09 bd 88 4c fb bd 48 ac 30 be
       -0.041964974 -0.033523895 -0.122704566 -0.1725322

sequential_3/conv2d_11/Conv2D f4 [64, 3, 3, 64]
000000 e1 8f cb bb c0 80 34 3b 5a f7 f8 3c 2b 10 e8 3c
       -0.00621222 0.0027542561 0.030391384 0.028328022
000010 00 27 57 3d 63 e8 91 bd a1 cc 08 be a9 ef 82 bd
       0.052527428 -0.071244024 -0.1335931 -0.06393368
000020 f1 e0 97 bd 66 8d 14 be d9 6f e0 3d 3b fc f2 3d
       -0.07415951 -0.14507064 0.10958833 0.118645154
000030 8e d3 9b bc b5 e7 1d bd e4 9c 42 3e 8d ef 40 3d
       -0.019021776 -0.03855105 0.19005162 0.047103453
000040 93 3c 78 be d2 60 c2 bd ac f0 06 bd 3c 20 58 bd
       -0.24241857 -0.09491123 -0.032944366 -0.052765116
000050 9d 0a a1 bc b8 cb 07 bd a1 d0 ea 3c c3 10 b2 bd
       -0.019658381 -0.033153266 0.028663935 -0.08694603
000060 b5 22 02 be a8 e6 25 be 9a 44 ae bd d5 a6 b9 3b
       -0.12708552 -0.1620127 -0.085091785 0.00566564
000070 e2 b5 97 3b 0c 93 d2 3c a3 c6 38 bd 94 81 85 3d
       0.0046298364 0.025704883 -0.04511131 0.06518856
000080 9b e4 c8 3d 6a aa 85 3c ea 4d 7f 3c 4b a9 17 be
       0.09809228 0.016316611 0.015582541 -0.14810674
000090 50 a4 09 3d 15 2c 45 3d 36 dd 49 3e 41 24 01 be
       0.033603966 0.048137743 0.19713292 -0.12611486
0000a0 fe 9c ec 3c 7a 11 a2 bd cf 2a 06 3d 67 f9 20 bd
       0.028883453 -0.0791349 0.03275567 -0.03930035
0000b0 40 c2 f8 3d d9 fb 32 be f8 42 5f bd 74 16 d8 3d
       0.12146425 -0.17478885 -0.054507226 0.105511576
0000c0 8d f1 78 bc 71 6c dc bd 55 9e 50 bd 7a a3 77 bd
       -0.015194309 -0.10762871 -0.050932247 -0.060458638
0000d0 36 56 b5 bd 43 1b e4 bd d8 66 97 3a c4 b2 a5 bd
       -0.08854334 -0.11138012 0.0011551036 -0.080907375
0000e0 46 15 4e bd f1 fd bf bd 99 91 2d 3e 48 9b af bd
       -0.050313257 -0.09374607 0.16950072 -0.085745394
0000f0 23 f0 e1 bd 41 f2 72 3d 3f 23 db 3d 8e 2c f0 3c
       -0.110321306 0.059313063 0.10700082 0.02931812
000100 39 8a 1d bd c8 c6 36 bd 75 70 e5 bd 07 f4 ab 3a
       -0.038461898 -0.044623166 -0.1120309 0.001311899
000110 bc 7f 2b bd 21 98 33 be 65 48 e8 3d 6c e8 7f bd
       -0.041869864 -0.17538501 0.11341933 -0.062477514
000120 df 03 49 bb 0b 27 da 3a 7d 77 bc 3d ee 91 39 3d
       -0.0030672473 0.0016643716 0.09202478 0.045305185
000130 90 c5 b4 3c a9 be 00 3c d5 78 b1 3d 77 47 bc bc
       0.022066861 0.007857957 0.08665625 -0.022983296
000140 dc a9 03 be de 87 8e 3d 02 e6 64 bd e2 d5 08 bd
       -0.12857765 0.06959508 -0.055883415 -0.0334071
000150 88 52 07 be a2 ae 5d bc f8 d4 90 bd 69 a0 3a bd
       -0.13215077 -0.013530405 -0.070718706 -0.045563135
000160 62 bb a0 3b 69 96 6a bd 4f 90 70 3d 89 ed 02 3d
       0.0049051503 -0.05727235 0.058731373 0.031964812
000170 0e 52 3e bc 6f 59 8e bd 69 2d 92 bb 85 6e 32 bd
       -0.011616243 -0.06950652 -0.0044609797 -0.04356243
000180 2e ae cc bd 7e bf ed 3c b7 7e 83 3d 77 e8 61 bb
       -0.0999416 0.029021975 0.06420653 -0.0034470835
000190 1b ed 8a 3d 1d fe 15 bc 44 d0 64 3d 5e b6 14 bd
       0.067835055 -0.009154824 0.05586268 -0.03630673
0001a0 bf ab bd 3c d1 81 ec 3c 20 5f 36 bd 82 4c bb 3c
       0.023153184 0.028870495 -0.044524312 0.02286363
0001b0 df 6b 07 be fa be 73 3d d4 05 ef bc be da 31 bd
       -0.13224743 0.0595083 -0.029177584 -0.0434215
0001c0 a5 5f ce bb 84 46 b3 3d 55 ee 36 3d 18 0c 74 bc
       -0.006298023 0.08753684 0.044660885 -0.0148954615
0001d0 90 c5 8b 3d e6 cd 19 3c 1e dc 13 3e 6e 20 50 bc
       0.068247914 0.009387469 0.14439437 -0.012703044
0001e0 71 11 ab bd 9a bb 16 3d 73 79 2b 3c a4 0c d9 bc
       -0.08352936 0.036800005 0.0104659675 -0.026495285
0001f0 22 6d be bd e5 1b 71 3d 8a fa 85 bd ed d9 c9 3c
       -0.09298159 0.058864493 -0.06541927 0.024640048
000200 b1 eb 8e bd 45 ff b4 bb 45 8c 17 be 16 0d 7e 3d
       -0.06978548 -0.0055235946 -0.14799602 0.0620242
000210 01 48 a0 3d 15 11 9d be 77 a9 ae 3d a3 04 4c 3e
       0.07826234 -0.30677095 0.085284166 0.19923644
000220 6e df a3 bd 0a 95 7b bd c2 d7 01 be 82 54 a5 3c
       -0.080016 -0.06142143 -0.12679961 0.020181898
000230 6f ae 5b bd a8 78 a4 3d 91 b7 90 bc d8 2d 23 3d
       -0.05363315 0.08030826 -0.017665656 0.039838642
000240 f1 3d 34 3a 01 04 c9 bd 7c 5d 93 bd f4 0a 4f bd
       0.0006875685 -0.09815217 -0.07195565 -0.050547555
000250 9c 34 44 be 21 df 94 3d fb 5e 84 be c6 32 a7 bb
       -0.19160694 0.07269121 -0.25853714 -0.005102488
000260 71 96 b7 3b 20 04 d3 3c af b0 df bd d0 fa 6f bd
       0.005602651 0.025758803 -0.109223716 -0.058588803
000270 a3 85 96 3d df 05 18 be bf aa eb bd 0f 02 1b bd
       0.07349708 -0.1484599 -0.115071766 -0.03784376
000280 74 0e bd 3d 71 c2 87 3c d0 7b 46 bc 93 5f 1c 3e
       0.09231272 0.01657221 -0.01211448 0.15270834
000290 ef a9 9f bd 8c 4d 3c bd a8 a3 2a be cc 5c 43 3e
       -0.07796084 -0.045972392 -0.16663992 0.19078368
0002a0 5c c5 d5 bc 0d c9 00 3e 53 c2 f8 bc d7 f0 a1 bd
       -0.026095085 0.12576695 -0.030366099 -0.07907265
0002b0 02 1c f5 3d de 50 af bd 19 e9 65 bd e6 45 14 bd
       0.11968233 -0.08560346 -0.056130502 -0.036199473
0002c0 a0 34 33 3d e3 a3 d2 3d 97 c9 9b 3d 38 a6 4b be
       0.04375136 0.10285165 0.076068096 -0.19887626
0002d0 f4 54 84 3d 86 f4 14 3e 79 46 79 3c 48 37 c5 bd
       0.06461516 0.14546403 0.015214556 -0.09629685
0002e0 79 b5 62 be da c7 9b 3d d0 4b 0c 3c 0e 25 1c 3d
       -0.22139539 0.07606478 0.008562997 0.038121276
0002f0 32 d8 5c bd 92 71 af bc 18 07 18 bd e6 b0 03 be
       -0.053917117 -0.02141646 -0.03711614 -0.1286045
000300 fd c9 b7 bd 98 ee 60 bd 0e ec 39 bc 5d a2 dd bd
       -0.08974073 -0.05491504 -0.011347784 -0.10821984
000310 90 04 65 be 79 47 1d 3c a5 a6 c0 bd 91 c9 31 be
       -0.22365022 0.00959956 -0.09406785 -0.17362048
000320 a9 1d 2f bd 48 1b 0a 3e b1 af f2 bd a5 de ba bd
       -0.042752896 0.1348697 -0.11849917 -0.09124497
000330 42 57 0d 3c 58 e8 31 bd f1 34 39 be c4 ef 07 bd
       0.008626761 -0.04343447 -0.18086602 -0.033187643
000340 ba 00 95 be 52 88 ea ba 28 b5 48 be b3 58 a5 bd
       -0.29102117 -0.001789341 -0.19600356 -0.08073559
000350 c2 9d 23 3d 05 52 02 3b ee 14 98 bd 02 ff 13 3d
       0.03994537 0.0019885313 -0.07425867 0.036131866
000360 97 b9 63 bd 01 e4 d7 3c ae b7 b6 bd 9c 98 b5 3c
       -0.055596914 0.026353838 -0.08921753 0.022167496
000370 69 49 dc bd 60 83 6d bd df 94 9c bc 30 4f 2a 3d
       -0.107561894 -0.057986617 -0.019113956 0.041579425
000380 d2 45 5c be 59 25 27 bd 8f 76 a4 3d fa 71 a8 bc
       -0.2151101 -0.040807102 0.08030426 -0.02056216
000390 b4 d8 e3 bd b7 3e 1f be bc f3 4d bd 30 96 96 bc
       -0.11125317 -0.15551268 -0.05028127 -0.018382162
0003a0 bb 9f 44 bd e4 fe 10 be 43 d0 af bc 6e 49 3c be
       -0.048003893 -0.14159733 -0.021461612 -0.18387386
0003b0 98 58 5e bd b7 79 3f 3d e0 08 af bd 6f d3 33 bd
       -0.05428371 0.046746936 -0.08546615 -0.04390281
0003c0 ce c5 fb bd f7 12 48 be 9f b6 c2 bd 3c ee 8e b9
       -0.122935876 -0.19538485 -0.095074885 -0.0002726185
0003d0 8a 27 44 bd 9d e4 c1 bd 5b 89 f5 bb 20 54 27 be
       -0.04788927 -0.09467433 -0.0074931807 -0.16340685
0003e0 95 a0 03 3d b2 c3 35 be 42 df 2d bd 8e 12 ad bd
       0.032135565 -0.17750433 -0.042449243 -0.08450805
0003f0 7e cd b1 39 4d be ac 3d e1 68 16 3c a4 3d 3a bc
       0.00033913174 0.084347345 0.0091802785 -0.011367235
